…
 24 25 26 27 28 29 30 31 32 33 34 35 36 37 38 39 40 41 42 43 44 45 46 47
 48]
==> image down scale: 1.0
==> image down scale: 1.0
len(self.metas),self.metas[0] 1519 ('scan29', 3, [0], [25, 0, 48])
len(self.metas),self.metas[5] 1519 ('scan29', 3, [5], [25, 0, 48])
self.remap [ 0  1  2  3  4  5  6  7  8  9 10 11 12 13 14 15 16 17 18 19 20 21 22 23
 24 25 26 27 28 29 30 31 32 33 34 35 36 37 38 39 40 41 42 43 44 45 46 47
 48]
==> image down scale: 1.0
MVSSystem(
  (loss): SL1Loss(
    (loss): SmoothL1Loss()
  )
  (MVSNet): ModuleList(
    (0): MVSNet(
      (feature): FeatureNet(
        (conv0): Sequential(
          (0): ConvBnReLU(
            (conv): Conv2d(3, 8, kernel_size=(3, 3), stride=(1, 1), padding=(1, 1), bias=False)
            (bn): InPlaceABN(8, eps=1e-05, momentum=0.1, affine=True, activation=leaky_relu[0.01])
          )
          (1): ConvBnReLU(
            (conv): Conv2d(8, 8, kernel_size=(3, 3), stride=(1, 1), padding=(1, 1), bias=False)
            (bn): InPlaceABN(8, eps=1e-05, momentum=0.1, affine=True, activation=leaky_relu[0.01])
          )
        )
        (conv1): Sequential(
          (0): ConvBnReLU(
            (conv): Conv2d(8, 16, kernel_size=(5, 5), stride=(2, 2), padding=(2, 2), bias=False)
            (bn): InPlaceABN(16, eps=1e-05, momentum=0.1, affine=True, activation=leaky_relu[0.01])
          )
          (1): ConvBnReLU(
            (conv): Conv2d(16, 16, kernel_size=(3, 3), stride=(1, 1), padding=(1, 1), bias=False)
            (bn): InPlaceABN(16, eps=1e-05, momentum=0.1, affine=True, activation=leaky_relu[0.01])
          )
          (2): ConvBnReLU(
            (conv): Conv2d(16, 16, kernel_size=(3, 3), stride=(1, 1), padding=(1, 1), bias=False)
            (bn): InPlaceABN(16, eps=1e-05, momentum=0.1, affine=True, activation=leaky_relu[0.01])
          )
        )
        (conv2): Sequential(
          (0): ConvBnReLU(
            (conv): Conv2d(16, 32, kernel_size=(5, 5), stride=(2, 2), padding=(2, 2), bias=False)
            (bn): InPlaceABN(32, eps=1e-05, momentum=0.1, affine=True, activation=leaky_relu[0.01])
          )
          (1): ConvBnReLU(
            (conv): Conv2d(32, 32, kernel_size=(3, 3), stride=(1, 1), padding=(1, 1), bias=False)
            (bn): InPlaceABN(32, eps=1e-05, momentum=0.1, affine=True, activation=leaky_relu[0.01])
          )
          (2): ConvBnReLU(
            (conv): Conv2d(32, 32, kernel_size=(3, 3), stride=(1, 1), padding=(1, 1), bias=False)
            (bn): InPlaceABN(32, eps=1e-05, momentum=0.1, affine=True, activation=leaky_relu[0.01])
          )
        )
        (toplayer): Conv2d(32, 32, kernel_size=(1, 1), stride=(1, 1))
      )
      (cost_reg_2): CostRegNet(
        (conv0): ConvBnReLU3D(
          (conv): Conv3d(41, 8, kernel_size=(3, 3, 3), stride=(1, 1, 1), padding=(1, 1, 1), bias=False)
          (bn): InPlaceABN(8, eps=1e-05, momentum=0.1, affine=True, activation=leaky_relu[0.01])
        )
        (conv1): ConvBnReLU3D(
          (conv): Conv3d(8, 16, kernel_size=(3, 3, 3), stride=(2, 2, 2), padding=(1, 1, 1), bias=False)
          (bn): InPlaceABN(16, eps=1e-05, momentum=0.1, affine=True, activation=leaky_relu[0.01])
        )
        (conv2): ConvBnReLU3D(
          (conv): Conv3d(16, 16, kernel_size=(3, 3, 3), stride=(1, 1, 1), padding=(1, 1, 1), bias=False)
          (bn): InPlaceABN(16, eps=1e-05, momentum=0.1, affine=True, activation=leaky_relu[0.01])
        )
        (conv3): ConvBnReLU3D(
          (conv): Conv3d(16, 32, kernel_size=(3, 3, 3), stride=(2, 2, 2), padding=(1, 1, 1), bias=False)
          (bn): InPlaceABN(32, eps=1e-05, momentum=0.1, affine=True, activation=leaky_relu[0.01])
        )
        (conv4): ConvBnReLU3D(
          (conv): Conv3d(32, 32, kernel_size=(3, 3, 3), stride=(1, 1, 1), padding=(1, 1, 1), bias=False)
          (bn): InPlaceABN(32, eps=1e-05, momentum=0.1, affine=True, activation=leaky_relu[0.01])
        )
        (conv5): ConvBnReLU3D(
          (conv): Conv3d(32, 64, kernel_size=(3, 3, 3), stride=(2, 2, 2), padding=(1, 1, 1), bias=False)
          (bn): InPlaceABN(64, eps=1e-05, momentum=0.1, affine=True, activation=leaky_relu[0.01])
        )
        (conv6): ConvBnReLU3D(
          (conv): Conv3d(64, 64, kernel_size=(3, 3, 3), stride=(1, 1, 1), padding=(1, 1, 1), bias=False)
          (bn): InPlaceABN(64, eps=1e-05, momentum=0.1, affine=True, activation=leaky_relu[0.01])
        )
        (conv7): Sequential(
          (0): ConvTranspose3d(64, 32, kernel_size=(3, 3, 3), stride=(2, 2, 2), padding=(1, 1, 1), output_padding=(1, 1, 1), bias=False)
          (1): InPlaceABN(32, eps=1e-05, momentum=0.1, affine=True, activation=leaky_relu[0.01])
        )
        (conv9): Sequential(
          (0): ConvTranspose3d(32, 16, kernel_size=(3, 3, 3), stride=(2, 2, 2), padding=(1, 1, 1), output_padding=(1, 1, 1), bias=False)
          (1): InPlaceABN(16, eps=1e-05, momentum=0.1, affine=True, activation=leaky_relu[0.01])
        )
        (conv11): Sequential(
          (0): ConvTranspose3d(16, 8, kernel_size=(3, 3, 3), stride=(2, 2, 2), padding=(1, 1, 1), output_padding=(1, 1, 1), bias=False)
          (1): InPlaceABN(8, eps=1e-05, momentum=0.1, affine=True, activation=leaky_relu[0.01])
        )
      )
    )
    (1): MVSNet(
      (feature): FeatureNet(
        (conv0): Sequential(
          (0): ConvBnReLU(
            (conv): Conv2d(3, 8, kernel_size=(3, 3), stride=(1, 1), padding=(1, 1), bias=False)
            (bn): InPlaceABN(8, eps=1e-05, momentum=0.1, affine=True, activation=leaky_relu[0.01])
          )
          (1): ConvBnReLU(
            (conv): Conv2d(8, 8, kernel_size=(3, 3), stride=(1, 1), padding=(1, 1), bias=False)
            (bn): InPlaceABN(8, eps=1e-05, momentum=0.1, affine=True, activation=leaky_relu[0.01])
          )
        )
        (conv1): Sequential(
          (0): ConvBnReLU(
            (conv): Conv2d(8, 16, kernel_size=(5, 5), stride=(2, 2), padding=(2, 2), bias=False)
            (bn): InPlaceABN(16, eps=1e-05, momentum=0.1, affine=True, activation=leaky_relu[0.01])
          )
          (1): ConvBnReLU(
            (conv): Conv2d(16, 16, kernel_size=(3, 3), stride=(1, 1), padding=(1, 1), bias=False)
            (bn): InPlaceABN(16, eps=1e-05, momentum=0.1, affine=True, activation=leaky_relu[0.01])
          )
          (2): ConvBnReLU(
            (conv): Conv2d(16, 16, kernel_size=(3, 3), stride=(1, 1), padding=(1, 1), bias=False)
            (bn): InPlaceABN(16, eps=1e-05, momentum=0.1, affine=True, activation=leaky_relu[0.01])
          )
        )
        (conv2): Sequential(
          (0): ConvBnReLU(
            (conv): Conv2d(16, 32, kernel_size=(5, 5), stride=(2, 2), padding=(2, 2), bias=False)
            (bn): InPlaceABN(32, eps=1e-05, momentum=0.1, affine=True, activation=leaky_relu[0.01])
          )
          (1): ConvBnReLU(
            (conv): Conv2d(32, 32, kernel_size=(3, 3), stride=(1, 1), padding=(1, 1), bias=False)
            (bn): InPlaceABN(32, eps=1e-05, momentum=0.1, affine=True, activation=leaky_relu[0.01])
          )
          (2): ConvBnReLU(
            (conv): Conv2d(32, 32, kernel_size=(3, 3), stride=(1, 1), padding=(1, 1), bias=False)
            (bn): InPlaceABN(32, eps=1e-05, momentum=0.1, affine=True, activation=leaky_relu[0.01])
          )
        )
        (toplayer): Conv2d(32, 32, kernel_size=(1, 1), stride=(1, 1))
      )
      (cost_reg_2): CostRegNet(
        (conv0): ConvBnReLU3D(
          (conv): Conv3d(41, 8, kernel_size=(3, 3, 3), stride=(1, 1, 1), padding=(1, 1, 1), bias=False)
          (bn): InPlaceABN(8, eps=1e-05, momentum=0.1, affine=True, activation=leaky_relu[0.01])
        )
        (conv1): ConvBnReLU3D(
          (conv): Conv3d(8, 16, kernel_size=(3, 3, 3), stride=(2, 2, 2), padding=(1, 1, 1), bias=False)
          (bn): InPlaceABN(16, eps=1e-05, momentum=0.1, affine=True, activation=leaky_relu[0.01])
        )
        (conv2): ConvBnReLU3D(
          (conv): Conv3d(16, 16, kernel_size=(3, 3, 3), stride=(1, 1, 1), padding=(1, 1, 1), bias=False)
          (bn): InPlaceABN(16, eps=1e-05, momentum=0.1, affine=True, activation=leaky_relu[0.01])
        )
        (conv3): ConvBnReLU3D(
          (conv): Conv3d(16, 32, kernel_size=(3, 3, 3), stride=(2, 2, 2), padding=(1, 1, 1), bias=False)
          (bn): InPlaceABN(32, eps=1e-05, momentum=0.1, affine=True, activation=leaky_relu[0.01])
        )
        (conv4): ConvBnReLU3D(
          (conv): Conv3d(32, 32, kernel_size=(3, 3, 3), stride=(1, 1, 1), padding=(1, 1, 1), bias=False)
          (bn): InPlaceABN(32, eps=1e-05, momentum=0.1, affine=True, activation=leaky_relu[0.01])
        )
        (conv5): ConvBnReLU3D(
          (conv): Conv3d(32, 64, kernel_size=(3, 3, 3), stride=(2, 2, 2), padding=(1, 1, 1), bias=False)
          (bn): InPlaceABN(64, eps=1e-05, momentum=0.1, affine=True, activation=leaky_relu[0.01])
        )
        (conv6): ConvBnReLU3D(
          (conv): Conv3d(64, 64, kernel_size=(3, 3, 3), stride=(1, 1, 1), padding=(1, 1, 1), bias=False)
          (bn): InPlaceABN(64, eps=1e-05, momentum=0.1, affine=True, activation=leaky_relu[0.01])
        )
        (conv7): Sequential(
          (0): ConvTranspose3d(64, 32, kernel_size=(3, 3, 3), stride=(2, 2, 2), padding=(1, 1, 1), output_padding=(1, 1, 1), bias=False)
          (1): InPlaceABN(32, eps=1e-05, momentum=0.1, affine=True, activation=leaky_relu[0.01])
        )
        (conv9): Sequential(
          (0): ConvTranspose3d(32, 16, kernel_size=(3, 3, 3), stride=(2, 2, 2), padding=(1, 1, 1), output_padding=(1, 1, 1), bias=False)
          (1): InPlaceABN(16, eps=1e-05, momentum=0.1, affine=True, activation=leaky_relu[0.01])
        )
        (conv11): Sequential(
          (0): ConvTranspose3d(16, 8, kernel_size=(3, 3, 3), stride=(2, 2, 2), padding=(1, 1, 1), output_padding=(1, 1, 1), bias=False)
          (1): InPlaceABN(8, eps=1e-05, momentum=0.1, affine=True, activation=leaky_relu[0.01])
        )
      )
    )
    (2): MVSNet(
      (feature): FeatureNet(
        (conv0): Sequential(
          (0): ConvBnReLU(
            (conv): Conv2d(3, 8, kernel_size=(3, 3), stride=(1, 1), padding=(1, 1), bias=False)
            (bn): InPlaceABN(8, eps=1e-05, momentum=0.1, affine=True, activation=leaky_relu[0.01])
          )
          (1): ConvBnReLU(
            (conv): Conv2d(8, 8, kernel_size=(3, 3), stride=(1, 1), padding=(1, 1), bias=False)
            (bn): InPlaceABN(8, eps=1e-05, momentum=0.1, affine=True, activation=leaky_relu[0.01])
          )
        )
        (conv1): Sequential(
          (0): ConvBnReLU(
            (conv): Conv2d(8, 16, kernel_size=(5, 5), stride=(2, 2), padding=(2, 2), bias=False)
            (bn): InPlaceABN(16, eps=1e-05, momentum=0.1, affine=True, activation=leaky_relu[0.01])
          )
          (1): ConvBnReLU(
            (conv): Conv2d(16, 16, kernel_size=(3, 3), stride=(1, 1), padding=(1, 1), bias=False)
            (bn): InPlaceABN(16, eps=1e-05, momentum=0.1, affine=True, activation=leaky_relu[0.01])
          )
          (2): ConvBnReLU(
            (conv): Conv2d(16, 16, kernel_size=(3, 3), stride=(1, 1), padding=(1, 1), bias=False)
            (bn): InPlaceABN(16, eps=1e-05, momentum=0.1, affine=True, activation=leaky_relu[0.01])
          )
        )
        (conv2): Sequential(
          (0): ConvBnReLU(
            (conv): Conv2d(16, 32, kernel_size=(5, 5), stride=(2, 2), padding=(2, 2), bias=False)
            (bn): InPlaceABN(32, eps=1e-05, momentum=0.1, affine=True, activation=leaky_relu[0.01])
          )
          (1): ConvBnReLU(
            (conv): Conv2d(32, 32, kernel_size=(3, 3), stride=(1, 1), padding=(1, 1), bias=False)
            (bn): InPlaceABN(32, eps=1e-05, momentum=0.1, affine=True, activation=leaky_relu[0.01])
          )
          (2): ConvBnReLU(
            (conv): Conv2d(32, 32, kernel_size=(3, 3), stride=(1, 1), padding=(1, 1), bias=False)
            (bn): InPlaceABN(32, eps=1e-05, momentum=0.1, affine=True, activation=leaky_relu[0.01])
          )
        )
        (toplayer): Conv2d(32, 32, kernel_size=(1, 1), stride=(1, 1))
      )
      (cost_reg_2): CostRegNet(
        (conv0): ConvBnReLU3D(
          (conv): Conv3d(41, 8, kernel_size=(3, 3, 3), stride=(1, 1, 1), padding=(1, 1, 1), bias=False)
          (bn): InPlaceABN(8, eps=1e-05, momentum=0.1, affine=True, activation=leaky_relu[0.01])
        )
        (conv1): ConvBnReLU3D(
          (conv): Conv3d(8, 16, kernel_size=(3, 3, 3), stride=(2, 2, 2), padding=(1, 1, 1), bias=False)
          (bn): InPlaceABN(16, eps=1e-05, momentum=0.1, affine=True, activation=leaky_relu[0.01])
        )
        (conv2): ConvBnReLU3D(
          (conv): Conv3d(16, 16, kernel_size=(3, 3, 3), stride=(1, 1, 1), padding=(1, 1, 1), bias=False)
          (bn): InPlaceABN(16, eps=1e-05, momentum=0.1, affine=True, activation=leaky_relu[0.01])
        )
        (conv3): ConvBnReLU3D(
          (conv): Conv3d(16, 32, kernel_size=(3, 3, 3), stride=(2, 2, 2), padding=(1, 1, 1), bias=False)
          (bn): InPlaceABN(32, eps=1e-05, momentum=0.1, affine=True, activation=leaky_relu[0.01])
        )
        (conv4): ConvBnReLU3D(
          (conv): Conv3d(32, 32, kernel_size=(3, 3, 3), stride=(1, 1, 1), padding=(1, 1, 1), bias=False)
          (bn): InPlaceABN(32, eps=1e-05, momentum=0.1, affine=True, activation=leaky_relu[0.01])
        )
        (conv5): ConvBnReLU3D(
          (conv): Conv3d(32, 64, kernel_size=(3, 3, 3), stride=(2, 2, 2), padding=(1, 1, 1), bias=False)
          (bn): InPlaceABN(64, eps=1e-05, momentum=0.1, affine=True, activation=leaky_relu[0.01])
        )
        (conv6): ConvBnReLU3D(
          (conv): Conv3d(64, 64, kernel_size=(3, 3, 3), stride=(1, 1, 1), padding=(1, 1, 1), bias=False)
          (bn): InPlaceABN(64, eps=1e-05, momentum=0.1, affine=True, activation=leaky_relu[0.01])
        )
        (conv7): Sequential(
          (0): ConvTranspose3d(64, 32, kernel_size=(3, 3, 3), stride=(2, 2, 2), padding=(1, 1, 1), output_padding=(1, 1, 1), bias=False)
          (1): InPlaceABN(32, eps=1e-05, momentum=0.1, affine=True, activation=leaky_relu[0.01])
        )
        (conv9): Sequential(
          (0): ConvTranspose3d(32, 16, kernel_size=(3, 3, 3), stride=(2, 2, 2), padding=(1, 1, 1), output_padding=(1, 1, 1), bias=False)
          (1): InPlaceABN(16, eps=1e-05, momentum=0.1, affine=True, activation=leaky_relu[0.01])
        )
        (conv11): Sequential(
          (0): ConvTranspose3d(16, 8, kernel_size=(3, 3, 3), stride=(2, 2, 2), padding=(1, 1, 1), output_padding=(1, 1, 1), bias=False)
          (1): InPlaceABN(8, eps=1e-05, momentum=0.1, affine=True, activation=leaky_relu[0.01])
        )
      )
    )
    (3): MVSNet(
      (feature): FeatureNet(
        (conv0): Sequential(
          (0): ConvBnReLU(
            (conv): Conv2d(3, 8, kernel_size=(3, 3), stride=(1, 1), padding=(1, 1), bias=False)
            (bn): InPlaceABN(8, eps=1e-05, momentum=0.1, affine=True, activation=leaky_relu[0.01])
          )
          (1): ConvBnReLU(
            (conv): Conv2d(8, 8, kernel_size=(3, 3), stride=(1, 1), padding=(1, 1), bias=False)
            (bn): InPlaceABN(8, eps=1e-05, momentum=0.1, affine=True, activation=leaky_relu[0.01])
          )
        )
        (conv1): Sequential(
          (0): ConvBnReLU(
            (conv): Conv2d(8, 16, kernel_size=(5, 5), stride=(2, 2), padding=(2, 2), bias=False)
            (bn): InPlaceABN(16, eps=1e-05, momentum=0.1, affine=True, activation=leaky_relu[0.01])
          )
          (1): ConvBnReLU(
            (conv): Conv2d(16, 16, kernel_size=(3, 3), stride=(1, 1), padding=(1, 1), bias=False)
            (bn): InPlaceABN(16, eps=1e-05, momentum=0.1, affine=True, activation=leaky_relu[0.01])
          )
          (2): ConvBnReLU(
            (conv): Conv2d(16, 16, kernel_size=(3, 3), stride=(1, 1), padding=(1, 1), bias=False)
            (bn): InPlaceABN(16, eps=1e-05, momentum=0.1, affine=True, activation=leaky_relu[0.01])
          )
        )
        (conv2): Sequential(
          (0): ConvBnReLU(
            (conv): Conv2d(16, 32, kernel_size=(5, 5), stride=(2, 2), padding=(2, 2), bias=False)
            (bn): InPlaceABN(32, eps=1e-05, momentum=0.1, affine=True, activation=leaky_relu[0.01])
          )
          (1): ConvBnReLU(
            (conv): Conv2d(32, 32, kernel_size=(3, 3), stride=(1, 1), padding=(1, 1), bias=False)
            (bn): InPlaceABN(32, eps=1e-05, momentum=0.1, affine=True, activation=leaky_relu[0.01])
          )
          (2): ConvBnReLU(
            (conv): Conv2d(32, 32, kernel_size=(3, 3), stride=(1, 1), padding=(1, 1), bias=False)
            (bn): InPlaceABN(32, eps=1e-05, momentum=0.1, affine=True, activation=leaky_relu[0.01])
          )
        )
        (toplayer): Conv2d(32, 32, kernel_size=(1, 1), stride=(1, 1))
      )
      (cost_reg_2): CostRegNet(
        (conv0): ConvBnReLU3D(
          (conv): Conv3d(41, 8, kernel_size=(3, 3, 3), stride=(1, 1, 1), padding=(1, 1, 1), bias=False)
          (bn): InPlaceABN(8, eps=1e-05, momentum=0.1, affine=True, activation=leaky_relu[0.01])
        )
        (conv1): ConvBnReLU3D(
          (conv): Conv3d(8, 16, kernel_size=(3, 3, 3), stride=(2, 2, 2), padding=(1, 1, 1), bias=False)
          (bn): InPlaceABN(16, eps=1e-05, momentum=0.1, affine=True, activation=leaky_relu[0.01])
        )
        (conv2): ConvBnReLU3D(
          (conv): Conv3d(16, 16, kernel_size=(3, 3, 3), stride=(1, 1, 1), padding=(1, 1, 1), bias=False)
          (bn): InPlaceABN(16, eps=1e-05, momentum=0.1, affine=True, activation=leaky_relu[0.01])
        )
        (conv3): ConvBnReLU3D(
          (conv): Conv3d(16, 32, kernel_size=(3, 3, 3), stride=(2, 2, 2), padding=(1, 1, 1), bias=False)
          (bn): InPlaceABN(32, eps=1e-05, momentum=0.1, affine=True, activation=leaky_relu[0.01])
        )
        (conv4): ConvBnReLU3D(
          (conv): Conv3d(32, 32, kernel_size=(3, 3, 3), stride=(1, 1, 1), padding=(1, 1, 1), bias=False)
          (bn): InPlaceABN(32, eps=1e-05, momentum=0.1, affine=True, activation=leaky_relu[0.01])
        )
        (conv5): ConvBnReLU3D(
          (conv): Conv3d(32, 64, kernel_size=(3, 3, 3), stride=(2, 2, 2), padding=(1, 1, 1), bias=False)
          (bn): InPlaceABN(64, eps=1e-05, momentum=0.1, affine=True, activation=leaky_relu[0.01])
        )
        (conv6): ConvBnReLU3D(
          (conv): Conv3d(64, 64, kernel_size=(3, 3, 3), stride=(1, 1, 1), padding=(1, 1, 1), bias=False)
          (bn): InPlaceABN(64, eps=1e-05, momentum=0.1, affine=True, activation=leaky_relu[0.01])
        )
        (conv7): Sequential(
          (0): ConvTranspose3d(64, 32, kernel_size=(3, 3, 3), stride=(2, 2, 2), padding=(1, 1, 1), output_padding=(1, 1, 1), bias=False)
          (1): InPlaceABN(32, eps=1e-05, momentum=0.1, affine=True, activation=leaky_relu[0.01])
        )
        (conv9): Sequential(
          (0): ConvTranspose3d(32, 16, kernel_size=(3, 3, 3), stride=(2, 2, 2), padding=(1, 1, 1), output_padding=(1, 1, 1), bias=False)
          (1): InPlaceABN(16, eps=1e-05, momentum=0.1, affine=True, activation=leaky_relu[0.01])
        )
        (conv11): Sequential(
          (0): ConvTranspose3d(16, 8, kernel_size=(3, 3, 3), stride=(2, 2, 2), padding=(1, 1, 1), output_padding=(1, 1, 1), bias=False)
          (1): InPlaceABN(8, eps=1e-05, momentum=0.1, affine=True, activation=leaky_relu[0.01])
        )
      )
    )
  )
  (model_register): ModuleList(
    (0): MVSNeRF(
      (nerf): Renderer_gs(
        (pts_linears): ModuleList(
          (0): Linear(in_features=63, out_features=128, bias=True)
          (1): Linear(in_features=128, out_features=128, bias=True)
          (2): Linear(in_features=128, out_features=128, bias=True)
          (3): Linear(in_features=128, out_features=128, bias=True)
          (4): Linear(in_features=128, out_features=128, bias=True)
          (5): Linear(in_features=191, out_features=128, bias=True)
        )
        (pts_bias): Linear(in_features=20, out_features=128, bias=True)
        (output_liners): ModuleList(
          (0): Linear(in_features=128, out_features=128, bias=True)
          (1): Linear(in_features=128, out_features=128, bias=True)
          (2): Linear(in_features=128, out_features=1, bias=True)
        )
      )
    )
    (1): MVSNeRF(
      (nerf): Renderer_gs(
        (pts_linears): ModuleList(
          (0): Linear(in_features=63, out_features=128, bias=True)
          (1): Linear(in_features=128, out_features=128, bias=True)
          (2): Linear(in_features=128, out_features=128, bias=True)
          (3): Linear(in_features=128, out_features=128, bias=True)
          (4): Linear(in_features=128, out_features=128, bias=True)
          (5): Linear(in_features=191, out_features=128, bias=True)
        )
        (pts_bias): Linear(in_features=20, out_features=128, bias=True)
        (output_liners): ModuleList(
          (0): Linear(in_features=128, out_features=128, bias=True)
          (1): Linear(in_features=128, out_features=128, bias=True)
          (2): Linear(in_features=128, out_features=1, bias=True)
        )
      )
    )
    (2): MVSNeRF(
      (nerf): Renderer_gs(
        (pts_linears): ModuleList(
          (0): Linear(in_features=63, out_features=128, bias=True)
          (1): Linear(in_features=128, out_features=128, bias=True)
          (2): Linear(in_features=128, out_features=128, bias=True)
          (3): Linear(in_features=128, out_features=128, bias=True)
          (4): Linear(in_features=128, out_features=128, bias=True)
          (5): Linear(in_features=191, out_features=128, bias=True)
        )
        (pts_bias): Linear(in_features=20, out_features=128, bias=True)
        (output_liners): ModuleList(
          (0): Linear(in_features=128, out_features=128, bias=True)
          (1): Linear(in_features=128, out_features=128, bias=True)
          (2): Linear(in_features=128, out_features=4, bias=True)
        )
      )
    )
    (3): MVSNeRF(
      (nerf): Renderer_gs(
        (pts_linears): ModuleList(
          (0): Linear(in_features=63, out_features=128, bias=True)
          (1): Linear(in_features=128, out_features=128, bias=True)
          (2): Linear(in_features=128, out_features=128, bias=True)
          (3): Linear(in_features=128, out_features=128, bias=True)
          (4): Linear(in_features=128, out_features=128, bias=True)
          (5): Linear(in_features=191, out_features=128, bias=True)
        )
        (pts_bias): Linear(in_features=20, out_features=128, bias=True)
        (output_liners): ModuleList(
          (0): Linear(in_features=128, out_features=128, bias=True)
          (1): Linear(in_features=128, out_features=128, bias=True)
        )
        (feat_ds_linear): Linear(in_features=128, out_features=3, bias=True)
        (feat_rest_linear): Linear(in_features=128, out_features=45, bias=True)
      )
    )
  )
)
type of self.grad_vars[0] is <class 'torch.nn.parameter.Parameter'>
Validation sanity check: 0it [00:00, ?it/s]Validation sanity check:   0%|          | 0/1 [00:00<?, ?it/s]/rds/user/hl589/hpc-work/conda_envs/mvsnerf1/lib/python3.8/site-packages/pytorch_lightning/utilities/distributed.py:69: UserWarning: The dataloader, val dataloader 0, does not have many workers which may be a bottleneck. Consider increasing the value of the `num_workers` argument` (try 128 which is the number of cpus on this machine) in the `DataLoader` init to improve performance.
…
